…
background-color: null;
font-style: inherit;">=</span><span class="va" style="color: #111111;
background-color: null;
font-style: inherit;">True</span>)</span></code></pre></div>
</details>
<div class="cell-output cell-output-stdout">
<pre><code>Model: "resnet50"
_________________________________________________________________
 Layer (type)                Output Shape              Param #   
=================================================================
 input (InputLayer)          [(None, 224, 224, 3)]     0         
                                                                 
 sequential (Sequential)     (None, 224, 224, 3)       0         
                                                                 
 conv2d_28 (Conv2D)          (None, 112, 112, 64)      9472      
                                                                 
 max_pooling2d (MaxPooling2D  (None, 56, 56, 64)       0         
 )                                                               
                                                                 
 cfg0_block (Functional)     (None, 56, 56, 256)       148480    
                                                                 
 cfg1_block (Functional)     (None, 28, 28, 512)       665600    
                                                                 
 cfg2_block (Functional)     (None, 14, 14, 1024)      2641920   
                                                                 
 cfg3_block (Functional)     (None, 7, 7, 2048)        10526720  
                                                                 
 classifier (Functional)     (None, 120)               3932280   
                                                                 
=================================================================
Total params: 17,924,472
Trainable params: 17,893,752
Non-trainable params: 30,720
_________________________________________________________________
None</code></pre>
</div>
</div>
</section>
<section id="defining-callbacks" class="level3">
<h3 class="anchored" data-anchor-id="defining-callbacks">Defining Callbacks</h3>
…
