…
    metrics=['accuracy'],\n    )\n    \n    return resnet_model\nmodel = build_resnet_model()\n\n\nkeras.utils.plot_model(model, show_shapes=True, rankdir='TB', show_layer_activations=True, expand_nested=True)\n\n\nModel: \"resnet50\"\n_________________________________________________________________\n Layer (type)                Output Shape              Param #   \n=================================================================\n input (InputLayer)          [(None, 224, 224, 3)]     0         \n                                                                 \n sequential (Sequential)     (None, 224, 224, 3)       0         \n                                                                 \n conv2d_28 (Conv2D)          (None, 112, 112, 64)      9472      \n                                                                 \n max_pooling2d (MaxPooling2D  (None, 56, 56, 64)       0         \n )                                                               \n                                                                 \n cfg0_block (Functional)     (None, 56, 56, 256)       148480    \n                                                                 \n cfg1_block (Functional)     (None, 28, 28, 512)       665600    \n                                                                 \n cfg2_block (Functional)     (None, 14, 14, 1024)      2641920   \n                                                                 \n cfg3_block (Functional)     (None, 7, 7, 2048)        10526720  \n                                                                 \n classifier (Functional)     (None, 120)               3932280   \n                                                                 \n=================================================================\nTotal params: 17,924,472\nTrainable params: 17,893,752\nNon-trainable params: 30,720\n_________________________________________________________________\nNone\n\n\n\n\nDefining Callbacks\nIn model.fit(), we can define callbacks for the model that are invoked dur
…
